Chat-Bot/chatBot/data.pth (torch, 3818 bytes, 6 tensors)

l1.weight f4 [8, 19]
0.07179454 0.45380545 -0.20699587 0.25865117 0.22899914 -0.2671781 0.046054937 -0.27819967
0.20335028 -0.27980062 -0.13172102 0.69324946 -0.26847753 0.24850428 0.06355549 -0.060877856
-0.01477349 -0.28749335 0.4903776 0.3008602 0.16459502 -0.019318882 0.2057305 0.12398036
0.31695908 0.33176616 0.09517675 0.14557022 -0.25575182 -0.20956461 0.5790488 0.30996355
0.17472783 0.21338165 0.24746613 0.08762816 0.5196783 0.40032887 0.2191783 -0.12389036
0.08126948 -0.01004228 -0.13334182 0.38150662 0.45727652 -0.011292055 -0.005946106 0.006563216
0.0034116374 0.007908642 0.42793605 0.15810989 0.45807466 0.7058938 -0.09847551 0.10943653
0.021886542 0.24969909 0.07761934 0.34129193 0.056586996 -0.23766275 -0.27031177 0.32927352
-0.43548152 -0.130333 0.762122 0.8037112 -0.48204836 -0.3010215 0.114003986 0.10678674
-0.1362537 0.6164656 -0.56441134 -0.52113867 0.33961824 -0.17102337 -0.1800904 -0.18697405
-0.103790656 0.57294965 0.1474019 0.7354676 -0.17894639 -0.3180793 -0.31804875 -0.31908318
0.38327676 -0.008639574 0.5507172 0.5611933 -0.14762142 -0.31795865 -0.14945158 -0.2726453
0.36807367 -0.2555913 0.018401692 0.15173678 -0.4103623 -0.2512055 -0.2701545 0.48129818
-0.18747725 -0.39199647 0.47226173 -0.45169055 0.20785043 -0.18855533 -0.56969 -0.26444507
0.6897652 0.6454713 0.24397118 0.1212994 -0.21176714 0.1869357 -0.08801992 0.550131
0.518771 0.43422833 -0.018112386 -0.1339092 -0.20648462 -0.33808863 0.6602843 -0.047234446
0.27645296 0.44883996 -0.07200526 -0.33812335 -0.33811656 0.4398416 0.121913046 0.049606405
-0.22332397 -0.10359092 0.38043097 0.06761148 0.24862108 -0.16687408 -0.2559844 -0.09347914
-0.05363966 0.34567344 -0.060854245 0.07140772 0.53822494 -0.30526343 0.26420873 0.035949748
00000000: 0409 933d 3059 e83e baf6 53be ed6d 843e
00000010: c07e 6a3e 91cb 88be 1aa4 3c3d 3070 8ebe
00000020: 0e3b 503e 0742 8fbe e0e1 06be cc78 313f
00000030: e375 89be e877 7e3e 6129 823d 0f5b 79bd
00000040: 820c 72bc 5432 93be c612 fb3e 590a 9a3e
00000050: 998b 283e a242 9ebc 04ab 523e 6ae9 fd3d
00000060: 7648 a23e 41dd a93e 07ec c23d 5c10 153e
00000070: e7f1 82be 1b98 56be 8b3c 143f 8bb3 9e3e
00000080: daeb 323e b880 5a3e c367 7d3e 6576 b33d
00000090: a309 053f e8f7 cc3e 4770 603e 3bba fdbd
000000a0: 9d70 a63d 6088 24bc c28a 08be d654 c33e
000000b0: 2620 ea3e 5002 39bc 8dd7 c2bb 3f10 d73b
000000c0: c795 5f3b 4093 013c 6f1a db3e 8fe7 213e
000000d0: c388 ea3e 75b5 343f 87ad c9bd 4220 e03d
000000e0: 684b b33c 1eb1 7f3e e3f6 9e3d d1bd ae3e
000000f0: c4c7 673d dd5d 73be 4e66 8abe 8a96 a83e
00000100: 6ff7 debe 0476 05be 6d1a 433f 04c0 4d3f
00000110: 0bcf f6be 7d1f 9abe ec7a e93d 02b3 da3d
00000120: 1786 0bbe b1d0 1d3f 437d 10bf 5869 05bf
00000130: 71e2 ad3e c020 2fbe 9e69 38be 2076 3fbe
00000140: 3290 d4bd d4ac 123f 86f0 163e 9b47 3c3f
00000150: b93d 37be 4adb a2be 49d7 a2be df5e a3be
00000160: da3c c43e 008d 0dbc cdfb 0c3f 5daa 0f3f
00000170: 122a 17be 7acb a2be d609 19be 2a98 8bbe
00000180: 2774 bc3e dddc 82be 25bf 963c e360 1b3e
00000190: 021b d2be 029e 80be b151 8abe b76c f63e
000001a0: 09fa 3fbe c3b3 c8be 4acc f13e fc43 e7be
000001b0: bed6 543e a614 41be 34d7 11bf 5865 87be
000001c0: 7494 303f 9b3d 253f 95d3 793e d26b f83d
000001d0: 7cd9 58be 126c 3f3e ca43 b4bd 63d5 0c3f
000001e0: 2dce 043f 2d53 de3e 6d60 94bc 7e1f 09be
000001f0: b470 53be f419 adbe 6408 293f e878 41bd
00000200: 3e8b 8d3e 5ace e53e 7e77 93bd 811e adbe
00000210: 9d1d adbe eb32 e13e 8cad f93d 1630 4b3d
00000220: 0aaf 64be 7a27 d4bd d9c7 c23e e377 8a3d
00000230: 8696 7e3e 0ae1 2abe 6310 83be fe71 bfbd
00000240: 43b5 5bbd 1cfc b03e 4d42 79bd 363e 923d
00000250: 1cc9 093f 7d4b 9cbe 5e46 873e 0b40 133d

l1.bias f4 [8]
0.27816746 0.6726621 -0.048483808 0.5644236 0.3179474 0.57942355 0.33809605 0.2556316
00000000: f76b 8e3e 9533 2c3f f596 46bd 117e 103f
00000010: 00ca a23e 1a55 143f ed1a ad3e 25e2 823e

l2.weight f4 [8, 8]
-0.13900848 -0.02205637 0.2564873 1.2369756 0.43415794 -0.45762324 0.94962853 0.15688872
-0.021674035 0.43102965 -0.34699824 1.1684691 -0.49423683 0.19564806 -0.50049484 -0.1326372
-0.36361402 0.432405 0.6938206 -0.14272095 0.6166647 -0.10513009 0.8056644 0.41891456
0.41760924 0.3904665 -0.16959888 -0.47291964 -0.120201744 0.75284934 -0.46784434 0.17604223
0.5524313 0.793639 -0.14501445 -0.6384748 -0.16933405 0.82992387 -0.76174486 0.1529901
-0.004312208 0.80689377 0.37702477 -0.44469762 0.65373546 0.38738257 0.54826516 0.6216491
0.5773467 0.36013034 -0.2167343 0.76640415 -0.60775346 0.79326993 -0.32030088 0.15286385
-0.6416164 0.3595561 0.71951914 -0.025613109 1.2479246 -0.34550145 0.7684256 0.34096888
00000000: 3d58 0ebe 8faf b4bc 4e52 833e 3755 9e3f
00000010: f349 de3e 984d eabe db1a 733f 70a7 203e
00000020: bf8d b1bc ebaf dc3e c1a9 b1be 6590 953f
00000030: 9c0c fdbe f757 483e 6e20 00bf 0cd2 07be
00000040: 9e2b babe 3064 dd3e 3a9e 313f 7125 12be
00000050: bddd 1d3f 724e d7bd 0640 4e3f f87b d63e
00000060: e1d0 d53e 3aeb c73e 54ab 2dbe 8622 f2be
00000070: 552c f6bd bcba 403f 4b89 efbe 6a44 343e
00000080: 236c 0d3f ed2b 4b3f ab7e 14be 1673 23bf
00000090: e865 2dbe e475 543f b601 43bf 70a9 1c3e
000000a0: 6c4d 8dbb 9790 4e3f 6409 c13e 68af e3be
000000b0: 355b 273f 0257 c63e 1b5b 0c3f 6524 1f3f
000000c0: fecc 133f 0163 b83e 99ef 5dbe 1033 443f
000000d0: bb95 1bbf bd13 4b3f 7afe a3be 5788 1c3e
000000e0: f940 24bf bd17 b83e 6832 383f 95d2 d1bc
000000f0: febb 9f3f 91e5 b0be 8ab7 443f 7993 ae3e

l2.bias f4 [8]
0.50991374 0.6083158 -0.12017331 0.26484329 0.34472558 -0.010374907 0.2870426 -0.21230447
00000000: b589 023f 96ba 1b3f 6d1d f6bd 8a99 873e
00000010: df7f b03e 84fb 29bc 3ff7 923e 5866 59be

l3.weight f4 [3, 8]
0.7595084 0.99297136 -0.85163784 -0.6618611 -0.9287319 -1.2676973 0.58203185 -1.0962169
-0.8138848 -0.33410498 -0.8061138 1.0056986 0.7141326 -0.054765154 0.7402287 -0.90332806
0.47573143 -1.013846 0.6965855 -0.21535073 -0.4644286 0.35348225 -0.8335699 1.3134899
00000000: 246f 423f 5f33 7e3f f004 5abf bb6f 29bf
00000010: 60c1 6dbf e843 a2bf 0a00 153f d650 8cbf
00000020: c15a 50bf cf0f abbe 795d 4ebf bbba 803f
00000030: 65d1 363f 6d51 60bd a17f 3d3f 8240 67bf
00000040: 1293 f33e b5c5 81bf 6d53 323f e784 5cbe
00000050: 96c9 edbe a0fb b43e d664 55bf 7020 a83f

l3.bias f4 [3]
0.0049968106 -0.30373293 0.15865022
00000000: 49bc a33b e282 9bbe 3475 223e
