Chat-Bot/backEnd_mangeTrips_Chat/data.pth (torch, 3818 bytes, 6 tensors)

l1.weight f4 [8, 19]
0	0x3eb1a985	0.34699646
1	0x3e067854	0.13131839
2	0xbe4b1e73	-0.19835834
3	0xbe218d99	-0.15776671
4	0xbdac4d44	-0.08413175
5	0x3f482f75	0.78197414
6	0x3e8547fc	0.26031482
7	0x3f399976	0.7249979
8	0xbcd6a762	-0.026202861
9	0xbe9adc59	-0.30246237
10	0xbe9ae037	-0.30249187
11	0xbe9ac367	-0.30227205
12	0x3f002b33	0.50065917
13	0xbd965c10	-0.07341778
14	0x3eeb796f	0.45991084
15	0x3f4ba787	0.795525
16	0xbdd494d0	-0.10379946
17	0xbde1588c	-0.11003217
18	0xbe8d9de5	-0.27659526
19	0x3e39d2cd	0.1814682
20	0x3e00f84e	0.1259472
21	0x3e9baec1	0.30406764
22	0xbe15f950	-0.14645886
23	0xbd6338ac	-0.05547397
24	0x3f24fc74	0.6444771
25	0x3ea31c16	0.31857365
26	0x3f06bca1	0.52631575
27	0xbbc8c7f6	-0.006127353
28	0x3f6ac850	0.917119
29	0x3f5f0acb	0.87125844
30	0xbea4c02a	-0.3217786
31	0x3f3f3c8b	0.74701756
32	0xbe26284f	-0.16226314
33	0x3e6c3b56	0.2306951
34	0x3f51fb60	0.8202419
35	0x3f2157f9	0.6302486
36	0xbea4bca7	-0.3217518
37	0xbea4aef6	-0.32164735
38	0x3ebf6fbf	0.37389943
39	0xbe493580	-0.19649315
40	0x3ed8a1fc	0.42311084
41	0x3ca28000	0.019836426
42	0xbdef6d47	-0.11690765
43	0x3f17a041	0.59228903
44	0x3e9905b8	0.29887176
45	0x3f1263c2	0.5718347
46	0xbe31a571	-0.17348267
47	0x3f116523	0.5679495
48	0x3ebd45b7	0.3696725
49	0xbe815057	-0.25256607
50	0x3f1a2aa6	0.60221326
51	0x3dbd58bd	0.09245441
52	0x3e29573f	0.16537188
53	0x3ebdd121	0.37073615
54	0x3ec5ca0c	0.38630712
55	0x3e3fddee	0.18737003
56	0xbe1e62e3	-0.1546741
57	0x3ca2e6bb	0.019885411
58	0x3eda328b	0.42616686
59	0x3e91a738	0.2844789
60	0x3d719fdc	0.058990344
61	0x3e641284	0.22272688
62	0xbeada7a5	-0.33916965
63	0x3c028e64	0.007968519
64	0xbeec1339	-0.46108416
65	0x3e3f2d1d	0.18669553
66	0x3f04f406	0.5193485
67	0x3f2b3345	0.66875106
68	0x3eb9c720	0.36284733
69	0xbec70efc	-0.3887862
70	0x3e548eff	0.20757674
71	0x3d9d871b	0.07691785
72	0xbc1bfbcc	-0.009520482
73	0x3ef18fb4	0.4717995
74	0x3edf5e37	0.43626568
75	0x3ef234ab	0.47305807
76	0x3d481ca3	0.048855435
77	0xbb9f12d8	-0.0048545413
78	0x3f18496c	0.5948703
79	0x3d5066c3	0.05087925
80	0xbe1bdc2e	-0.1522071
81	0x3ceb8aa1	0.028752627
82	0x3e8280bc	0.25488842
83	0x3e7c9279	0.2466525
84	0xbdda0090	-0.106446385
85	0x3eacbd83	0.33738336
86	0x3f158d89	0.5841909
87	0xbed9dd68	-0.42551732
88	0x3e8367c5	0.25665107
89	0x3ddd2328	0.10797721
90	0x3e7e2375	0.24818213
91	0x3ee27069	0.44226387
92	0x3f132491	0.5747767
93	0xbe80e1a6	-0.25172156
94	0xbed3ed51	-0.41391996
95	0x3efa9178	0.4893911
96	0xbd3ae10a	-0.04562477
97	0xbcdb60af	-0.0267795
98	0xbe4ff050	-0.20306516
99	0x3e194295	0.14966805
100	0x3ec35680	0.38151932
101	0x3ecdcbbe	0.40194505
102	0x3ef3517b	0.47523102
103	0xbde05de3	-0.109554075
104	0xbea1bd13	-0.31589565
105	0xbea17d08	-0.31540704
106	0xbd981f47	-0.07427841
107	0x3f28a30d	0.65873796
108	0x3d86724f	0.065647714
109	0x3ef2ab2b	0.47396216
110	0x3f2e6ed3	0.68137854
111	0xbe93c083	-0.28857812
112	0x3dad6f89	0.08468539
113	0x3ad07317	0.001590344
114	0x3dfbb844	0.12291005
115	0x3e5e2972	0.21695498
116	0xbeb85b38	-0.36007094
117	0x3e57eb27	0.21085797
118	0xbdcd0edf	-0.10012602
119	0x3f2f4f1d	0.6848009
120	0x3f10263a	0.5630833
121	0x3f1c48b4	0.61048436
122	0x3e36ffa2	0.17870954
123	0xbed88360	-0.4228773
124	0xbed8970a	-0.42302734
125	0x3eb53787	0.35393927
126	0x3f4fdaac	0.8119304
127	0x3e7719ef	0.24130987
128	0x3f12bf30	0.5732298
129	0x3eeda774	0.4641682
130	0xbd80cac1	-0.06288672
131	0x3f09e46e	0.5386418
132	0x3ec8a773	0.39190254
133	0x3f1cf636	0.6131319
134	0xbd7dd042	-0.06196619
135	0x3dcaa748	0.098951876
136	0xbd584f91	-0.052810255
137	0xbe534c2c	-0.20634526
138	0x3f2d3e34	0.6767304
139	0x3ef95db5	0.48704305
140	0x3f11ce9e	0.569559
141	0xbe09676c	-0.13418359
142	0x3f01ccf5	0.50703365
143	0x3f0444e4	0.5166762
144	0xbe89285c	-0.26788604
145	0x3f14983f	0.5804481
146	0x3ddaa883	0.10676672
147	0x3ed36a74	0.41292155
148	0x3f4abd66	0.7919525
149	0x3ebf921f	0.3741617
150	0xbe147c1d	-0.1450047
151	0xbe891c45	-0.2677938

l1.bias f4 [8]
0	0x3e9accd9	0.3023441
1	0x3ea4bcc9	0.32175282
2	0x3f16dced	0.58930856
3	0x3f6033b4	0.8757889
4	0x3ed9ebde	0.42562765
5	0x3ea184ef	0.31546733
6	0x3ed88bde	0.4229421
7	0x3e8925e9	0.26786736

l2.weight f4 [8, 8]
0	0xbead354f	-0.33829734
1	0xbf7c1bdf	-0.9848003
2	0x3ea28db1	0.31748727
3	0x3f33348c	0.70002055
4	0xbe83865b	-0.25688443
5	0x3e124304	0.14283377
6	0x3e9ee41f	0.31033418
7	0xbf0d2a64	-0.5514281
8	0xbe193983	-0.14963345
9	0x3d2017d0	0.03908521
10	0x3dcc457c	0.099741906
11	0xbe9ece61	-0.3101683
12	0x3ea3b3db	0.31973156
13	0x3dfffbb0	0.124991775
14	0x3cc51230	0.024056524
15	0xbe94845c	-0.29007232
16	0x3c3125a0	0.010812193
17	0x3d990b54	0.07472864
18	0x3e25e1d2	0.16199425
19	0xbeb4ccca	-0.35312492
20	0xbe5b837a	-0.21436873
21	0x3eada669	0.33916023
22	0xbe199183	-0.14996915
23	0xbdd6e350	-0.10492575
24	0xbe3bd5fd	-0.18343349
25	0xbf5392bd	-0.8264578
26	0x3d0dd34c	0.034625337
27	0x3f6b7c68	0.91986704
28	0xbe6e764d	-0.23287316
29	0xbd84444d	-0.0645834
30	0x3f1b3fac	0.6064403
31	0xbf443ebc	-0.76658225
32	0xbeae3772	-0.34026676
33	0x3d13a165	0.03604259
34	0x3e38b299	0.1803688
35	0xbd95678b	-0.0729514
36	0xbe080ffa	-0.13287345
37	0x3d98b091	0.07455552
38	0x3e1f81d4	0.15576869
39	0x3def7072	0.11691369
40	0xbf1809dc	-0.59390044
41	0xbe6623e4	-0.22474629
42	0x3e9394c5	0.2882444
43	0x3f8b14e7	1.0865754
44	0x3ef1bc0d	0.47213784
45	0xbf28f8b6	-0.660045
46	0xbe831b3f	-0.25606725
47	0xbe29ecce	-0.1659424
48	0xbf1aa9f9	-0.6041561
49	0x3f381068	0.71900034
50	0x3ec7cf1e	0.39025205
51	0x3f303cf1	0.6884299
52	0x3f789d79	0.97115284
53	0xbf78144c	-0.9690597
54	0xbf757cda	-0.95893633
55	0x3ee90c0f	0.45517012
56	0x3f3bd083	0.7336504
57	0x3f7d9958	0.9906211
58	0x3f57d6c3	0.84312075
59	0x3ce6660d	0.028124833
60	0x3f333821	0.7000752
61	0x3f6f7b2a	0.9354731
62	0x3f52584c	0.8216598
63	0x3f82f172	1.0229933

l2.bias f4 [8]
0	0x3f398a86	0.72476995
1	0xbe7d8ac2	-0.24759963
2	0xbe7b9b65	-0.24570997
3	0x3f2a7a01	0.66592413
4	0xbeac107c	-0.33606327
5	0x3f1f6d9d	0.6227663
6	0xbbb7d86d	-0.0056105168
7	0x3cfd6354	0.030931152

l3.weight f4 [3, 8]
0	0xbf0f6134	-0.56007695
1	0x3e1a6a72	0.15079668
2	0x3eb4ab15	0.35286775
3	0xbf338b79	-0.70134693
4	0x3e971af4	0.2951275
5	0x3e765695	0.24056466
6	0x3f9d191f	1.2273291
7	0xbea3c656	-0.31987256
8	0x3f70a529	0.94002014
9	0xbea251a6	-0.31702918
10	0x3e0122cc	0.1261093
11	0x3f54b87c	0.83094
12	0xbdf36eb0	-0.11886346
13	0x3f0bddab	0.54635113
14	0xbf8500f2	-1.0390913
15	0xbf4dc0f0	-0.80372524
16	0xbf5433ce	-0.8289155
17	0xbe7c8712	-0.246609
18	0x3e5e054a	0.21681705
19	0xbf74701f	-0.95483583
20	0xbea86ad9	-0.32894018
21	0xbf877499	-1.0582458
22	0xbf71c20e	-0.9443673
23	0x3f404550	0.7510576

l3.bias f4 [3]
0	0xbed331ac	-0.41248834
1	0x3eadb3e2	0.33926302
2	0xbd475f1d	-0.04867469
