chatBot/data.pth (torch, 3178 bytes, 6 tensors)

l1.weight f4 [8, 8]
0	0xbea32ecd	-0.31871644
1	0x3f383062	0.71948826
2	0xbe38b1cd	-0.18036576
3	0xbe1566fa	-0.14590064
4	0x3ec73e73	0.38914832
5	0x3e894405	0.26809707
6	0x3d08f0e8	0.03343287
7	0xbe24a2c2	-0.16077712
8	0x3ef49c67	0.47775576
9	0xbe69746a	-0.22798315
10	0x3f2991cd	0.662381
11	0x3f04b55c	0.5183923
12	0xbf191418	-0.59796286
13	0xbef1d5ba	-0.47233373
14	0x3de0cc6c	0.109764904
15	0xbf3348be	-0.7003287
16	0x3d3a4e40	0.04548478
17	0xbe8b7cfb	-0.2724379
18	0xbe167421	-0.14692737
19	0x3e010868	0.12600863
20	0xbeae2963	-0.3401595
21	0x3e2aeede	0.16692683
22	0xbe823f29	-0.25438812
23	0xbb5cc880	-0.0033688843
24	0x3f33e895	0.70276767
25	0x3d7b82e5	0.061404128
26	0x3f115b75	0.5678018
27	0x3f397389	0.7244192
28	0x3e81cd8b	0.2535213
29	0xbe27ea88	-0.1639806
30	0x3f0bc06c	0.5459049
31	0xbe7dc6a3	-0.24782805
32	0xbe4397ca	-0.19100872
33	0x3d95a178	0.07306188
34	0xbd9d4cec	-0.07680687
35	0xbea323d9	-0.31863287
36	0x3f1ae395	0.6050351
37	0xbeb37edc	-0.35057724
38	0x3de9ec23	0.11421993
39	0xbe26693d	-0.16251083
40	0xbe43c500	-0.19118118
41	0x3d5e5bff	0.054286953
42	0xbea73f2d	-0.32665387
43	0xbef8ec65	-0.48617855
44	0x3f17ec31	0.59344774
45	0x3e8697e2	0.26287752
46	0xbe970a5b	-0.29500088
47	0x3f43248a	0.7622763
48	0xbe99d8a3	-0.30048093
49	0x3ef949ae	0.48689026
50	0xbeedac82	-0.46420676
51	0xbed938fd	-0.4242629
52	0x3e85ca44	0.2613088
53	0x3ee60ed3	0.44933185
54	0xbe9e2240	-0.30885506
55	0x3eb7e6f6	0.35918397
56	0xbeb06fa5	-0.34460178
57	0x3e95f978	0.29291892
58	0xbea30be6	-0.31845015
59	0xbea30bdc	-0.31844985
60	0x3f5b601f	0.85693544
61	0x3ee09d0e	0.43869823
62	0x3bdf4ac0	0.006814331
63	0x3f1508dc	0.58216643

l1.bias f4 [8]
0	0x3e15643d	0.14589019
1	0x3f3347d5	0.7003148
2	0xbe10ef51	-0.14153792
3	0x3f10efa6	0.56615674
4	0x3d9d4462	0.076790586
5	0x3ef8ed21	0.48618415
6	0x3eed7a12	0.46382195
7	0x3ea30b8e	0.31844753

l2.weight f4 [8, 8]
0	0x3f0a1433	0.5393707
1	0xbf244d90	-0.6418085
2	0x3e164b52	0.1467717
3	0x3e873293	0.26405773
4	0x3f3c32bd	0.7351492
5	0x3f3c3033	0.73511046
6	0x3f36fff3	0.714843
7	0x3eca2b9c	0.39486396
8	0xbe7e968f	-0.24862121
9	0xbea07aa1	-0.31343558
10	0x3e579da6	0.21056232
11	0xbc84c73c	-0.016208284
12	0x3e8ade34	0.27122653
13	0xbe2803fa	-0.16407767
14	0xbcb46b70	-0.022023886
15	0x3dfdd142	0.123934284
16	0xbeabefc7	-0.33581373
17	0x3eea2984	0.457348
18	0xbc89e7bb	-0.01683413
19	0x3f47c522	0.78035176
20	0xbe9fef38	-0.31237197
21	0xbdf9611b	-0.121767245
22	0xbd7f7a36	-0.06237241
23	0xbedfde64	-0.43724358
24	0x3d86d245	0.065830745
25	0xbe8b68b0	-0.27228308
26	0x3e4158da	0.1888155
27	0x3deb5469	0.11490709
28	0xbd3281f8	-0.04358098
29	0x3cf6238f	0.030046253
30	0x3d970eb2	0.0737585
31	0xbdc07f26	-0.09399252
32	0x3eb60d28	0.35556912
33	0xbeb95bcf	-0.36202857
34	0xbcf0dc93	-0.029402053
35	0x3ceddb38	0.029035196
36	0x3f08871b	0.53331155
37	0x3f4ba628	0.7955041
38	0x3c9fb781	0.019496681
39	0x3f6ce0f4	0.9253075
40	0xbebe56d7	-0.3717563
41	0x3f365d8d	0.712365
42	0xbeaa096d	-0.33210316
43	0x3ef8e8f1	0.4861522
44	0xbe8300b3	-0.2558647
45	0xbea8b43b	-0.32950005
46	0xbdc1b7e5	-0.09458903
47	0xbe00cd0c	-0.12578219
48	0xbdb474ae	-0.088113174
49	0x3e8e1ed2	0.2775789
50	0x3ddba3bd	0.1072459
51	0x3e42f997	0.19040523
52	0xbe7518ab	-0.23935191
53	0xbe90d6eb	-0.2828897
54	0xbed53151	-0.41639188
55	0xbe694581	-0.2278042
56	0xbe1fd4ee	-0.1560857
57	0x3f3fbbae	0.7489575
58	0xbd875e17	-0.06609743
59	0x3e9a9b2f	0.3019652
60	0xbe34262c	-0.17592686
61	0xbed92aac	-0.4241537
62	0xbeaaee98	-0.33385158
63	0xbd79d0e0	-0.060990214

l2.bias f4 [8]
0	0x3eb1f6a2	0.34758478
1	0xbd7e24da	-0.062046863
2	0x3eb286b2	0.3486839
3	0xbe20e4ce	-0.15712282
4	0x3eaac44d	0.3335289
5	0x3ee534c0	0.44766808
6	0xbe199798	-0.14999235
7	0x3f120c47	0.57049984

l3.weight f4 [2, 8]
0	0x3f116d37	0.56807274
1	0xbe9b858c	-0.30375326
2	0xbef101ce	-0.4707169
3	0xbdd4e6f6	-0.10395615
4	0x3ed1bf2c	0.40966165
5	0xbf5748f6	-0.84095705
6	0x3c9adb56	0.018903416
7	0xbeb1ddb3	-0.34739456
8	0xbf0829c9	-0.5318876
9	0x3e0fe510	0.14052224
10	0x3f58393b	0.84462327
11	0x3dc4df0a	0.09612854
12	0xbf54fc8c	-0.83197856
13	0x3e6515a7	0.22371541
14	0x3e85264d	0.26005784
15	0x3f53d8f8	0.82752943

l3.bias f4 [2]
0	0x3ea36020	0.31909275
1	0xbeae4908	-0.34040093
