chatBot/data.pth (torch, 3370 bytes, 6 tensors)

l1.weight f4 [8, 12]
0	0x3dd871e1	0.10568596
1	0xbe912673	-0.28349647
2	0x3eaa0511	0.3320699
3	0x3e13bcdf	0.14427517
4	0x3e31a12e	0.17346641
5	0xbecc2549	-0.39872196
6	0xbecc0785	-0.39849487
7	0x3f224690	0.6338892
8	0x3ea4edc6	0.32212657
9	0xbdeb74eb	-0.1149691
10	0x3ef45663	0.47722158
11	0x3f0db06f	0.5534734
12	0x3e23175f	0.15926884
13	0x3d0d159c	0.034444436
14	0x3d1638df	0.03667533
15	0x3e23e09f	0.16003655
16	0x3f0fc93d	0.5616644
17	0x3e2bd33b	0.16779797
18	0xbd978e86	-0.07400231
19	0x3f1ccf5f	0.61253923
20	0xbd63e8e5	-0.055642027
21	0x3e9c43a4	0.30520356
22	0x3f108777	0.564567
23	0x3f00a17d	0.5024641
24	0x3e258f90	0.16168046
25	0x3d871521	0.06595827
26	0x3c05a141	0.008156122
27	0x3e85da81	0.26143268
28	0x3e932dd3	0.287459
29	0xbd977ca6	-0.07396822
30	0xbe8b6137	-0.27222607
31	0x3f043c66	0.5165466
32	0x3e15b5cf	0.14620136
33	0xbe41a156	-0.18909201
34	0x3f06ad3d	0.5260809
35	0x3e6a5660	0.22884512
36	0xbe79ae0d	-0.24382801
37	0x3f237963	0.63857096
38	0x3e056445	0.13026531
39	0xbdb04f54	-0.08608881
40	0xbe2110c2	-0.15729049
41	0x3f2f1b1b	0.68400735
42	0x3ec88f63	0.39171895
43	0xbeae4391	-0.34035924
44	0xbd6b8ca8	-0.057507187
45	0x3ef68d9e	0.4815492
46	0xbec544a6	-0.38528937
47	0xbf006c2f	-0.50165075
48	0x3cfea760	0.03108567
49	0xbe173dcb	-0.14769666
50	0x3e7a1fa8	0.24426138
51	0x3d361c58	0.044460624
52	0x3db0ff4c	0.08642444
53	0xbdcc88cc	-0.099870294
54	0xbd41bca8	-0.047299057
55	0xbdf94e56	-0.121731445
56	0xbe86cca8	-0.26328015
57	0x3e814454	0.25247443
58	0xbd9ee1c4	-0.07757905
59	0x3d583390	0.05278355
60	0x3e7fcfe4	0.24981648
61	0xbe1cac47	-0.15300094
62	0x3e35aa74	0.17740804
63	0xbe5818d8	-0.21103227
64	0x3e839c20	0.2570505
65	0x3e497502	0.19673541
66	0x3e5e5e68	0.217157
67	0xbdc3f068	-0.09567338
68	0xbe37120c	-0.17877978
69	0xbe39fe69	-0.18163456
70	0x3dce1868	0.10063249
71	0xbdb22b04	-0.08699611
72	0xbe64f1c2	-0.22357848
73	0x3ef488ac	0.47760522
74	0xbe2ea6de	-0.17055842
75	0xbe29c0c0	-0.16577435
76	0xbaf9a5b6	-0.0019046578
77	0x3f3c7f07	0.7363133
78	0x3f5e916b	0.8694064
79	0xbf15416d	-0.58302957
80	0xbe8ea5c4	-0.27860844
81	0x3f1e92ef	0.6194295
82	0xbe9e3717	-0.30901405
83	0xbf155da9	-0.5834604
84	0xbe1e9a3d	-0.15488525
85	0x3c56e4e0	0.0131160915
86	0xbe3da886	-0.18521318
87	0x3db32a4c	0.08748302
88	0x3e0db9b7	0.13840376
89	0x3ec25060	0.37951946
90	0xbe240c47	-0.16020308
91	0xbe07178d	-0.13192578
92	0x3e354aa0	0.17704248
93	0xbe48605f	-0.19568013
94	0xbe0ea5a6	-0.13930377
95	0xbe8a5ec6	-0.2702543

l1.bias f4 [8]
0	0x3ecc0352	0.39846283
1	0x3f5cc340	0.8623543
2	0x3f1090dd	0.56471044
3	0x3f0072c7	0.50175136
4	0xbe93b1ef	-0.2884669
5	0xbe887076	-0.266483
6	0x3f1536b9	0.58286625
7	0x3e06f369	0.13178791

l2.weight f4 [8, 8]
0	0xbc809550	-0.015696198
1	0xbe9c20ff	-0.30493924
2	0xbe585dc0	-0.21129513
3	0x3c8efba0	0.017453969
4	0xbd9229cc	-0.07136878
5	0xbd4b48d8	-0.049630016
6	0x3e31fed6	0.17382368
7	0xbe57e790	-0.21084428
8	0x3f3fcc6e	0.7492131
9	0x3e67ecbc	0.22648901
10	0x3edeeea4	0.43541443
11	0xbeeda078	-0.4641149
12	0x3ea9f7cf	0.33196875
13	0xbd8430e4	-0.06454638
14	0xbdf588ca	-0.11988981
15	0x3e391b91	0.18076922
16	0x3d901b58	0.070364654
17	0x3ea39e31	0.31956628
18	0x3f19fc4e	0.6015061
19	0xbe75a553	-0.23988847
20	0x3d9463dc	0.07245609
21	0xbe8e8491	-0.27835515
22	0xbecdb073	-0.40173683
23	0xbeb9019c	-0.3613404
24	0xbea314a8	-0.31851697
25	0xbe230e83	-0.15923505
26	0xbe2d5d3e	-0.169301
27	0x3ea7cffe	0.32775873
28	0xbe8c7184	-0.27430356
29	0x3c7b9bc0	0.015356958
30	0xbe9c08e1	-0.30475524
31	0xbe321e21	-0.17394306
32	0x3ec6fbd2	0.38864
33	0x3f3311ed	0.6994923
34	0x3f16a9f4	0.5885308
35	0xbed0baab	-0.40767416
36	0x3e4e51f6	0.20148453
37	0xbe8225d2	-0.2541948
38	0xbeb121bb	-0.34596047
39	0xbed9ab2a	-0.425134
40	0xbf4230d8	-0.7585578
41	0x3f1c6897	0.6109709
42	0x3ead176b	0.3380693
43	0x3f62f178	0.886497
44	0x3e27f202	0.16400912
45	0xbdbfa40c	-0.09357461
46	0x3f69e3ce	0.9136323
47	0x3e3e80b1	0.1860378
48	0x3f6f92d9	0.93583447
49	0x3ee86360	0.45388317
50	0x3f3c4422	0.7354146
51	0xbf0ac230	-0.54202557
52	0x3dab34e4	0.083596975
53	0x3deaf9e0	0.11473441
54	0x3d244243	0.040102255
55	0xbe372db8	-0.17888534
56	0xbea0e2e4	-0.31423104
57	0x3e9c6c85	0.30551544
58	0xbe821aa1	-0.2541094
59	0xbe8d6a68	-0.27620244
60	0xbe883132	-0.26600033
61	0xbea696f2	-0.32537037
62	0xbd4282e8	-0.047488123
63	0x3e0473a8	0.12934744

l2.bias f4 [8]
0	0xbeaa4ae8	-0.33260274
1	0x3e2d29c6	0.16910467
2	0x3ebd4e59	0.36973837
3	0x3d8b7dfa	0.068111375
4	0x3e11fd4d	0.14256783
5	0x3e3c8b94	0.1841262
6	0xbe17637b	-0.14784043
7	0xbdc07470	-0.09397209

l3.weight f4 [2, 8]
0	0xbe33e90c	-0.17569369
1	0xbec27d6b	-0.3798631
2	0xbf18f183	-0.5974352
3	0xbe8963e7	-0.26834032
4	0xbf47aff8	-0.7800288
5	0x3f43aca8	0.7643533
6	0xbf2da994	-0.6783688
7	0xbd2df9b0	-0.04247445
8	0xbe7bbb64	-0.24583203
9	0x3f350cc5	0.7072261
10	0x3e92b16c	0.28650987
11	0x3d2d1a7a	0.04226158
12	0x3f009749	0.5023084
13	0xbf672705	-0.90293914
14	0x3f44e551	0.7691241
15	0x3e960263	0.29298696

l3.bias f4 [2]
0	0xbe4dab14	-0.20084792
1	0xbee0d707	-0.43914053
