chatBot/data.pth (torch, 3370 bytes, 6 tensors)

l1.weight f4 [8, 12]
00000000: 585a 0d3e a939 a63d 85ef 7b3e a37e d13e
00000010: f1f5 d53d 756c a8be 6023 afbe d785 8b3e
00000020: 4130 cf3e c84a cbbe a4c4 b03e 0b65 9a3e
00000030: 8eb5 903e c1e5 87be 2402 7f3e 8f5c 863e
00000040: 24e1 c93d c10d 6abe a073 6abe dda9 e33e
00000050: c360 d13e fc09 b9bd 5b7b b03e 2082 883e
00000060: ed7d cfbd 01a7 f23d 7e47 d13e 0447 24be
00000070: 19d5 903e 5742 37be aea4 96bd 5cf2 0c3e
00000080: 0039 783e 137c d2bd 1a3c a13e 2d06 c23e
00000090: 86c1 8e3d b863 1dbe bd7e 6bbc b1aa 183e
000000a0: af3e e23e 947f adbe 8d4b aebe cc06 5a3e
000000b0: be9d 473e b1c8 2dbe 6e51 b33e 49c1 ee3e
000000c0: 892f 2e3e aea6 063f d023 8a3c 8ac0 34be
000000d0: 1bf4 11bd 3811 c63e 6fba e93e 61ff d9be
000000e0: 83b8 44bd e537 1e3f 70ba 04bf 4bef ffbe
000000f0: 17a5 fb3e 754a 053e ccc6 903e 9074 333d
00000100: dcee be3e 974b 02be b867 2abe b1ae c93e
00000110: 3fc0 dc3e 3c51 c4bd 73b7 b63e 0618 0c3f
00000120: df04 4bbe 0647 c3bd 6ec8 ac3d fadf b7bd
00000130: bfda f4bd 9c16 38bd 400b c9bc 6734 31be
00000140: 40a2 03bd 3a39 d43e 3a58 583d eef3 5b3d
00000150: a1e2 8c3e 00cc 99b9 f12a 103e 9439 8b3e
00000160: ba09 1a3f c10d 38bd 1f6d 49bd d20d 163f
00000170: 2b73 aa3e 484d 87bd aae7 4cbe b9f6 b03c
0.13803995 0.081164666 0.24603088 0.4091693 0.104473 -0.32895246 -0.34206676 0.2725055
0.40466502 -0.3970549 0.34525025 0.30155215 0.28263515 -0.26542476 0.2490316 0.26242492
0.09857395 -0.22856809 -0.2289567 0.44465533 0.40894136 -0.090351075 0.34469113 0.26661777
-0.1013144 0.1184826 0.40874857 -0.16042715 0.2828758 -0.178964 -0.07355629 0.13764328
0.24240494 -0.102775715 0.31491166 0.37895337 0.069705054 -0.15370071 -0.0143734785 0.14908864
0.4418845 -0.33886397 -0.34042016 0.21291655 0.19493768 -0.16971089 0.35023063 0.4663184
0.1701032 0.52598083 0.01686278 -0.17651573 -0.035633188 0.38685012 0.4565005 -0.4257765
-0.048027527 0.6180404 -0.5184698 -0.49987254 0.4914939 0.13016684 0.2827667 0.043812335
0.3729161 -0.12724148 -0.16641128 0.3939109 0.43115422 -0.09585807 0.35686836 0.54724157
-0.19826077 -0.09535031 0.084366664 -0.08978267 -0.11955785 -0.044943437 -0.024541497 -0.17305146
-0.032137156 0.4144991 0.052818514 0.053699426 0.27516654 -0.00029334426 0.14078881 0.27192366
0.6017109 -0.04493499 -0.04917633 0.5861484 0.3329099 -0.06606537 -0.20010248 0.021602022

l1.bias f4 [8]
00000000: 8869 a83e 2105 6a3e c8a5 993e 557e ad3e
00000010: b6bd 173f aa55 933e 7100 5cbd be21 383d
0.32893014 0.22853519 0.30009294 0.33885446 0.5927385 0.28776294 -0.05371136 0.044954054

l2.weight f4 [8, 8]
00000000: a366 8abe 97b9 b6bd 720d ca3d 5eea 0bbf
00000010: 29cf 6c3f ca1b b93d bf7a 583e a558 b0be
00000020: 4453 253f 53c9 203e 1abb 4b3f e015 393f
00000030: 8244 04bf 3ff9 0f3f cae5 41bd ec7a 1c3f
00000040: 668e 45be a75a 41be 9c51 b63d f3d2 b5be
00000050: 3e3a 8f3f 2447 53be e8f0 15bc e116 bebe
00000060: 000b a8bb 4aa1 8fbe 7ad2 233e d0b3 b03c
00000070: 10cd 553d 718c 41be 9ea7 a2be f0c1 c23c
00000080: 9657 fdbe 8605 bcbe 1973 033e 72ea debe
00000090: 9ea1 9d3f 117d 453e 0bfb 3f3e 45c0 34be
000000a0: 9886 19bd f2ea 213e 0002 d73b 006a 59bd
000000b0: 40a2 6c3d 6451 a4bd a6c8 663e 4e5b 5dbe
000000c0: 67aa 583f 9aac fc3e b441 c53e 6d7c 0f3f
000000d0: 591d 5bbe a865 283f 4498 78be e4ce 363d
000000e0: 11be 2fbe 634e 16be 88b6 0ebd f6b8 0bbe
000000f0: 484a 2abe 43b3 1abe 86c3 113e cdb5 a7be
-0.2703143 -0.08922117 0.09865846 -0.5465449 0.925036 0.090385035 0.21140574 -0.3444263
0.6458018 0.15701799 0.7958237 0.72299004 -0.51667035 0.56239694 -0.047338285 0.61125064
-0.19292602 -0.18882237 0.089022845 -0.35512504 1.1189649 -0.20632607 -0.009151675 -0.3712683
-0.0051282644 -0.2805274 0.15998259 0.021570116 0.052197516 -0.1890123 -0.31768507 0.023774117
-0.49480885 -0.36722964 0.12836875 -0.43538243 1.2314947 0.1928599 0.18748109 -0.1765147
-0.037481874 0.15812281 0.0065615177 -0.053079605 0.05777192 -0.080233365 0.22537479 -0.21616861
0.84635013 0.49350435 0.3852669 0.56049234 -0.21397914 0.65780115 -0.24276835 0.0446309
-0.17162348 -0.1467834 -0.034842044 -0.13644776 -0.16629899 -0.15107445 0.14234743 -0.3275589

l2.bias f4 [8]
00000000: e907 d83e ed5e 963e 638f f43e 4e2d b1be
00000010: ea32 fd3e 2fac 9abe a9a1 6b3d 4c65 0ebe
0.42193535 0.29369298 0.47765645 -0.34604877 0.49452907 -0.3020949 0.057527218 -0.13905829

l3.weight f4 [2, 8]
00000000: 2beb 2d3f a276 3fbf b836 d93e bcff 73be
00000010: 385a 503f d108 4abe 8216 4cbf 171a a63e
00000020: 1089 2cbf 5885 3f3f 59b0 1dbf 1ec7 403e
00000030: 7d46 eabe 00be 95bc 9d5c 483f f873 213d
0.6793696 -0.74790394 0.4242456 -0.23828024 0.8138766 -0.19729926 -0.79721844 0.3244178
-0.6739664 0.7481284 -0.6159721 0.18825957 -0.45756903 -0.018279076 0.78266317 0.039417237

l3.bias f4 [2]
00000000: 83dc 7abe 9c07 3abd
-0.24498181 -0.045417413
