chatBot/data.pth (torch, 3370 bytes, 6 tensors)

l1.weight f4 [8, 12]
00000000: efff cf3d 0f11 223f 943a 313e 9365 5ebe
00000010: 10f1 1abc 7e14 1b3f ecd4 6bbe 7706 5abe
00000020: 8b55 d83d 2f8b e13e 7f27 93be 4ece 50be
00000030: 8c1b 0d3e 08b3 d33e 9f45 10bd fa3d 9fbd
00000040: 7f9c 7bbd 2e06 3e3e cc4b cb3e 78e5 53be
00000050: 8124 babd a2dc 753e 18e9 ffbe fba6 c3be
00000060: c1ad aa3e b99c fabc 72ea a23e 8013 fe3d
00000070: 5225 0e3e 8e4b 9fbd 02a7 cdbd b214 e63e
00000080: a841 dd3e a993 8cbd a134 0bbe 2738 e33e
00000090: d6e3 ce3d ee16 c3bd d0df 4dbd b3db f43d
000000a0: b1be 0ebe 7133 42be c08a 9bbb bc48 203e
000000b0: 700a dc3d 14fd 693e b05f b53c 3463 5cbd
000000c0: db37 8f3c cb29 1bbd 8c6f c13d fdd1 9a3b
000000d0: e816 703e 0b3d a3be c94f 75be 2233 903e
000000e0: 0c9a 213e f81c cdbe 9f6e 083f d084 0e3f
000000f0: b49f e4bd 7703 84bc 6348 5abd 76d1 c53d
00000100: 12c3 c73e feea 7fbe fd38 90bd 0cf7 073f
00000110: 69d2 463e ebcf da3c c8a1 c4bd 799a 143f
00000120: 288e c73d 80ed 85be da3c c8bb 806d 50bb
00000130: 0982 57bc 9212 f13e 3d87 b33e fefb 63be
00000140: 7a37 42be a686 b1bd 6489 64be 9dec 4ebe
00000150: 5382 21be dca1 1ebe b022 943c abde 8dbe
00000160: 6b44 d9bb 4f58 e53e cbff 383f 4e0f 9dbe
00000170: f6e9 513e 15cd 6bbe 63ed 9cbe b88c 9ebe
0.10156237 0.6330728 0.17307502 -0.21718435 -0.009456888 0.60578144 -0.23030442 -0.21291529
0.10563191 0.440515 -0.2874107 -0.20391199 0.1378004 0.41347528 -0.035222646 -0.07775493
-0.061428543 0.18557045 0.39706266 -0.20693004 -0.09088994 0.24009946 -0.49982524 -0.38213333
0.3333569 -0.03059231 0.31819493 0.12406063 0.13881424 -0.07778083 -0.1004162 0.44937664
0.43214154 -0.068641014 -0.13594295 0.44378778 0.1010205 -0.09525858 -0.050262272 0.11955967
-0.1393993 -0.18964936 -0.004746765 0.15652746 0.10744178 0.22850448 0.022140354 -0.053805545
0.017482689 -0.037881654 0.09445104 0.0047247396 0.23446238 -0.3188251 -0.23956217 0.2816401
0.1578142 -0.40061164 0.53293794 0.55671406 -0.111632735 -0.016114933 -0.05329169 0.09659092
0.39016014 -0.24991986 -0.0704212 0.5311134 0.19416203 0.026710471 -0.0960117 0.58048207
0.09743911 -0.2615776 -0.0061107697 -0.0031803548 -0.013153561 0.4708448 0.35064116 -0.22264096
-0.18966475 -0.0866826 -0.22318035 -0.20207448 -0.15772371 -0.15491432 0.018082947 -0.27708945
-0.0066304705 0.44793937 0.7226531 -0.3067574 0.20499405 -0.23027451 -0.30649862 -0.30966735

l1.bias f4 [8]
00000000: 16bf 5a3e 025d ff3e 9413 cb3d d66b 9fbe
00000010: 0225 e33e f028 903d 7f09 643e b3ca 9c3e
0.21361956 0.49875647 0.099158436 -0.3113696 0.44364172 0.07039058 0.22269247 0.30623397

l2.weight f4 [8, 8]
00000000: 2c74 adbd 0063 31be 266e d23e 2ca3 8bbe
00000010: db78 503f 7e6c a33e 9988 b53d 1b48 9dbe
00000020: 7330 b0bc 36b5 70be fb0f 8d3e 95a7 ca3d
00000030: 789c 443f 93df f33d 61c3 863a 3a71 83be
00000040: f748 b5be 2983 9e3d da01 b73e 4421 d43d
00000050: 69b6 4b3f 9ae2 8a3e d22a 40be c292 6abe
00000060: 3ea1 18bd 76c5 bfbd a6ea c23e 7172 89be
00000070: c3f3 0a3f 299b 9b3e 331b f1be a203 c23d
00000080: d0d1 b7bd 9fa0 92be e2a9 1d3f 8633 053e
00000090: 8e51 543f bc40 213e 66d2 a6be 4699 adbe
000000a0: 9a13 483f 1746 503f a090 0fbe eca5 533e
000000b0: 719c a5be 0d76 b1be 4c8b a83e b6c3 493f
000000c0: 3a4a 543f bb31 b63e a5dc 05bf 3c6b 89be
000000d0: 9a52 d9be dc41 81bc b8ef d63e 1d7d 343f
000000e0: d910 223f 2f9e 223f 1c7b 27bf 1326 0bbe
000000f0: 5f09 57be 0ebf aa3d 6393 4b3f df58 153f
-0.08469424 -0.17322922 0.41099662 -0.27272928 0.8143441 0.3191871 0.088639446 -0.30719075
-0.021507477 -0.23506626 0.27551255 0.09895245 0.7680125 0.11907878 0.0010281616 -0.25672323
-0.3540723 0.077398606 0.357436 0.103579074 0.7957521 0.27126008 -0.18766335 -0.22907546
-0.037263148 -0.093638346 0.38069648 -0.26845124 0.542782 0.30391815 -0.47091064 0.09473349
-0.089755654 -0.2863817 0.61587346 0.13007936 0.8293694 0.1574735 -0.32582396 -0.33906
0.7815491 0.8135695 -0.14020014 0.20668763 -0.32345918 -0.34660378 0.32918775 0.78814256
0.8292576 0.35584816 -0.522898 -0.26839626 -0.42445832 -0.015778475 0.41979766 0.7050341
0.6330696 0.6352262 -0.65422225 -0.13588743 -0.20999669 0.08337222 0.7952177 0.5833873

l2.bias f4 [8]
00000000: 6431 7e3e d868 8a3e 6c1f e63d 3b9e 033e
00000010: 9221 bb3e a934 eb3e 7f50 ed3e 79e9 f13e
0.24823529 0.27033114 0.11236462 0.12853329 0.3654905 0.45938614 0.46350476 0.47248438

l3.weight f4 [2, 8]
00000000: 55cf 50bf 1617 2dbf 36d3 d8be ad38 b2be
00000010: e49b 26bf 57cb fc3e a5bc 1c3f da9d bc3e
00000020: 6883 7e3f 1b5b dd3e d2f8 433f 59cc fb3e
00000030: 57bf f93e 6bdb d9be 5c86 38bf af73 efbe
-0.81566364 -0.6761335 -0.4234864 -0.34808865 -0.6508162 0.49373886 0.6122535 0.3683918
0.9941926 0.4323357 0.76551545 0.49179342 0.48778793 -0.42550215 -0.72080016 -0.46767947

l3.bias f4 [2]
00000000: 9af2 95bd 2aef 3e3e
-0.07321663 0.18645921
