chatBot/data.pth (torch, 3178 bytes, 6 tensors)

l1.weight f4 [8, 8]
000000 20 db 50 3d 52 a6 20 3e 65 44 97 be 65 81 90 be
       0.050990224 0.15688446 -0.29544368 -0.2822372
000010 a7 6f a7 be de 67 d1 3c 6a e3 97 be 44 7e 4b 3e
       -0.3270237 0.025562223 -0.2966569 0.19872385
000020 ca 91 82 3b 02 59 99 3e 2e 4b 05 bf dc 4e 17 bf
       0.0039846646 0.2995072 -0.5206784 -0.59104705
000030 35 7a 0b 3f 3d e5 19 3f 16 55 18 bf 24 30 33 3f
       0.5448335 0.60115415 -0.5950483 0.6999533
000040 eb 32 8c be 80 ad 59 bc c0 38 91 3b 94 d4 e6 bd
       -0.27382597 -0.0132859945 0.004431814 -0.11271015
000050 89 45 01 be b4 d3 67 be 6f fe 8a 3e 06 68 6d 3e
       -0.12624182 -0.22639352 0.27147242 0.23184213
000060 b9 be ee bd 7c 01 09 3f 8e 27 cf bc 89 dc cd bc
       -0.11657471 0.5351789 -0.025287416 -0.025129573
000070 13 3c 2a be a4 f5 de 3e 41 49 ba 3d bf 37 47 be
       -0.16624479 0.43546784 0.09096003 -0.19454859
000080 c5 c5 a8 be 10 34 22 3f 02 cb d5 be bf 76 bf be
       -0.32963386 0.6336069 -0.41756445 -0.37395284
000090 3c 18 b7 3e 85 6f 52 3e 8f 81 bb bd 3a 23 4d 3e
       0.35760677 0.20550354 -0.09155571 0.20032969
0000a0 52 9b 90 3e 07 af f5 3b 03 b4 6b 3f 38 92 60 3f
       0.282435 0.0074976715 0.9207155 0.8772311
0000b0 c4 57 00 bf 80 61 ff be 38 56 0e 3f 0d 36 00 bf
       -0.5013392 -0.49879074 0.5560031 -0.50082475
0000c0 a2 a1 75 be 90 85 cb bc 58 f8 c8 bd f8 0e 7d be
       -0.2398744 -0.024843961 -0.09812993 -0.24712741
0000d0 be 93 2b 3e fe 72 3c 3e cc f3 a7 be 46 b7 96 be
       0.16755578 0.18403241 -0.3280319 -0.29436702
0000e0 b8 6b 7f 3e f6 c1 15 3f 39 fc df 3d 2b 5b f6 3d
       0.24943435 0.58499086 0.109367795 0.12029108
0000f0 f7 c9 df 3d 88 b6 f6 3e f8 7d df bd f9 79 7f 3e
       0.109271936 0.48186135 -0.109126985 0.24948873

l1.bias f4 [8]
000000 06 9e 60 be bf 4c 17 3f 0c 64 b2 be 2f 23 cc 3c
       -0.21935281 0.5910148 -0.34841955 0.02491912
000010 fe 8d d7 3e 18 5a 00 3f 55 e4 97 be e5 ee 3b 3f
       0.4210052 0.5013747 -0.2966639 0.734114

l2.weight f4 [8, 8]
000000 de 92 21 3e ce 49 3b 3f 1d 9b 9f 3e 30 07 dc bb
       0.15778682 0.7315949 0.3117303 -0.006714724
000010 18 45 19 3f e5 9b 07 bf 41 9f 8e 3e 83 1d e4 3e
       0.59871054 -0.5297225 0.27855876 0.44553766
000020 39 a7 a3 3e 27 da a3 3e c8 d5 a1 be 26 b3 30 3e
       0.31963518 0.32002375 -0.31608415 0.1725584
000030 3e 53 00 be 4a a1 6d 3e 18 2b 71 3d f9 91 b4 be
       -0.12531754 0.23206058 0.058878988 -0.35267618
000040 e6 95 7c 3e e3 2c 80 be 74 54 a1 3d d7 bd a6 3e
       0.24666557 -0.25034246 0.07877436 0.3256671
000050 15 06 a3 be 88 74 0d 3e d6 c4 1a 3e a4 a9 a7 bd
       -0.31840578 0.13813984 0.1511415 -0.08186653
000060 a2 5f 8f 3e e6 3c 1c bf 55 7b 9d 3e d3 90 c1 be
       0.2800265 -0.61030424 0.30758157 -0.37805805
000070 44 96 e1 bd 26 d0 5a 3f d4 7a cd 3d b1 e5 37 3f
       -0.11014989 0.8547386 0.10033193 0.71834856
000080 c4 bd 4f be 0e 06 97 3e b0 86 2f bd 34 1b 0b 3e
       -0.20287234 0.29496807 -0.042853057 0.13584596
000090 f6 5b e9 bd a3 5f 82 3e e1 8f 8a 3e 5e e7 94 be
       -0.11394493 0.2546359 0.27062896 -0.2908277
0000a0 d7 24 08 be b9 34 31 bf 8f ab 90 3e 98 2c 63 be
       -0.13295303 -0.69221073 0.2825589 -0.2218498
0000b0 c0 ae 80 be 0d 68 56 3f d0 56 cc bc 6b 69 06 3f
       -0.25133324 0.8375252 -0.02494374 0.52504605
0000c0 16 21 57 be a7 2e 69 3f e8 7e 05 bd e4 12 e5 3e
       -0.21008715 0.9108681 -0.03259173 0.44740975
0000d0 ea 76 42 3f 68 1f 04 bf 5a 08 7b 3e 90 dd 48 3f
       0.759627 -0.5161042 0.24514905 0.7846308
0000e0 7b ab aa 3e 18 76 4c be b4 c5 33 be b7 a1 6c 3e
       0.33333954 -0.19966924 -0.17555887 0.23108564
0000f0 fc c1 50 3d d1 85 9b be c1 66 52 be 15 9d 57 3e
       0.050966248 -0.3037553 -0.2054701 0.21056016

l2.bias f4 [8]
000000 f6 d6 a3 3e e0 7b 4a be e3 b7 16 be fc 4f 31 3e
       0.3199994 -0.19773817 -0.14718585 0.17315668
000010 2d e0 4a be 6b 0e 0a 3f ee 63 b0 3b 61 c4 be be
       -0.19812079 0.5392825 0.0053830063 -0.372592

l3.weight f4 [2, 8]
000000 62 ca 43 3f 7a 3d 4f 3e 98 36 74 be 4c 74 4f bf
       0.76480687 0.20238295 -0.23848951 -0.8103683
000010 71 2d ca 3d 15 9f 58 bf 94 63 3d 3f 2b ab 35 bc
       0.098719485 -0.8461774 0.7398007 -0.011088173
000020 9a f2 30 bf 0a 86 0b 3e 76 5d fa bd 45 8b 3c 3f
       -0.6912018 0.1362535 -0.122248575 0.7365001
000030 3c 70 1d 3d 5c c5 07 3f fe 4b 34 bf 04 85 c3 3d
       0.038437113 0.5303552 -0.70428455 0.09546855

l3.bias f4 [2]
000000 d1 42 62 3d 0b 09 1a 3e
       0.055239502 0.15042512
