chatBot/data.pth (torch, 3178 bytes, 6 tensors)

l1.weight f4 [8, 8]
0.20776619 -0.40489385 0.3169126 0.61506766 -0.5398088 -0.13263755 0.33713627 -0.39356905
-0.20037423 0.084921986 -0.37456426 -0.37099916 0.26431113 0.36333403 -0.15162821 0.33030957
-0.38694173 0.5581154 -0.48424736 -0.18613926 0.19811453 0.3282929 -0.09864629 0.51405144
0.2175763 0.017939806 -0.08209929 -0.12849677 0.014790475 0.15429154 -0.040049613 -0.28190506
0.51778543 -0.016862655 0.6998071 0.5966993 -0.4108739 -0.413676 0.38015547 -0.45003554
-0.3841111 0.15074442 -0.6534035 -0.51341677 0.30462867 -0.073984385 -0.2755543 0.397453
-0.16751748 0.55736965 -0.48994857 -0.53431404 0.10669439 0.164935 -0.3242211 0.28135026
0.43983874 -0.32786995 0.45740628 0.649893 -0.38495702 0.23197186 0.5449803 -0.077418625
00000000: a9c0 543e 3f4e cfbe 5e42 a23e 1375 1d3f
00000010: e930 0abf 23d2 07be 209d ac3e e281 c9be
00000020: e72e 4dbe 94eb ad3d e3c6 bfbe 9af3 bdbe
00000030: ca53 873e eb06 ba3e 6d44 1bbe 561e a93e
00000040: 3a1d c6be a7e0 0e3f 45ef f7be 4a9b 3ebe
00000050: 89de 4a3e 0216 a83e 1107 cabd e098 033f
00000060: 52cc 5e3e 80f6 923c ac23 a8bd a894 03be
00000070: c053 723c 9afe 1d3e 100b 24bd dc55 90be
00000080: 968d 043f 8d23 8abc 8f26 333f 49c1 183f
00000090: 105e d2be 57cd d3be bda3 c23e 0f6b e6be
000000a0: 36aa c4be bf5c 1a3e 7445 27bf 486f 03bf
000000b0: 4af8 9b3e 2085 97bd 7415 8dbe f67e cb3e
000000c0: b489 2bbe c7af 0e3f 8ada fabe cec8 08bf
000000d0: 9782 da3d b8e4 283e 4f00 a6be 240d 903e
000000e0: 8b32 e13e 92de a7be 2831 ea3e 635f 263f
000000f0: 1619 c5be 088a 6d3e d483 0b3f a88d 9ebd

l1.bias f4 [8]
0.53979784 0.44631445 0.6617495 -0.2592947 0.45006013 0.6596493 0.5343106 0.38496956
00000000: 3130 0a3f 5483 e43e 6a68 293f 46c2 84be
00000010: 486e e63e c7de 283f 94c8 083f bb1a c53e

l2.weight f4 [8, 8]
0.5137546 0.19643316 -0.16447926 0.094237834 0.38836825 -0.32693854 -0.21045847 0.17819725
0.37544417 -0.038140863 -0.28349128 -0.11468883 0.54691917 -0.04774906 -0.153981 0.6641563
-0.53541005 0.46600023 0.5454237 0.042942584 -0.38439912 0.47917506 0.40253973 0.041003864
-0.33797532 0.68132395 0.17948924 0.12445003 0.022594774 0.7769585 0.6673704 -0.3927017
0.6138633 -0.290463 0.10829677 -0.3052414 0.4003338 -0.064923495 -0.26452076 0.32353908
-0.45150423 0.46936586 0.46029449 0.010156006 -0.0055065253 0.8220077 0.84831506 -0.41058165
0.43019825 -0.2548448 -0.16107023 -0.26872796 0.6891121 0.22832121 -0.22095957 0.6519434
0.2291899 0.10568926 -0.21957906 0.24275276 -0.15670152 0.17600754 0.11528915 -0.3301041
00000000: 6c85 033f c625 493e 406d 28be c4ff c03d
00000010: 34d8 c63e 7d64 a7be 6d82 57be 5779 363e
00000020: 383a c03e 9839 1cbd c525 91be fae1 eabd
00000030: e502 0c3f 8594 43bd 32ad 1dbe 2606 2a3f
00000040: a210 09bf 9597 ee3e e3a0 0b3f 90e4 2f3d
00000050: f6cf c4be 6f56 f53e b019 ce3e abf3 273d
00000060: 1a0b adbe 3f6b 2e3f 07cc 373e a8df fe3d
00000070: ad18 b93c c1e6 463f c9d8 2a3f 3210 c9be
00000080: 2526 1d3f 91b7 94be b2ca dd3d 9a48 9cbe
00000090: 8df8 cc3e 9cf6 84bd 446f 87be eaa6 a53e
000000a0: 902b e7be b950 f03e b8ab eb3e 6065 263c
000000b0: 1570 b4bb 196f 523f 2d2b 593f c237 d2be
000000c0: f242 dc3e 057b 82be 98ef 24be b696 89be
000000d0: a769 303f 09cd 693e 3a43 62be c3e5 263f
000000e0: c2b0 6a3e 9c73 d83d 55d9 60be 2e94 783e
000000f0: 5d76 20be 523b 343e b81c ec3d 6803 a9be

l2.bias f4 [8]
0.42817268 0.27986178 0.61369175 0.4791748 0.19317321 0.5776132 0.06269937 -0.20092393
00000000: 7339 db3e 0b4a 8f3e e71a 1d3f 6656 f53e
00000010: 33cf 453e 75de 133f 8768 803d 01bf 4dbe

l3.weight f4 [2, 8]
-0.4364119 -0.3735607 0.3584231 0.74165446 -0.48750967 0.63616484 -0.6902587 -0.1733993
0.4435712 0.50789005 -0.5807871 -0.30375367 0.6561702 -0.16915853 0.3783829 -0.101926
00000000: 6171 dfbe 5943 bfbe 3c83 b73e 11dd 3d3f
00000010: de9a f9be b3db 223f cbb4 30bf 968f 31be
00000020: c41b e33e 1505 023f 77ae 14bf 9a85 9bbe
00000030: c5fa 273f e537 2dbe 67bb c13e 94be d0bd

l3.bias f4 [2]
-0.13690373 0.048580542
00000000: 7e30 0cbe 64fc 463d
