chatBot/data.pth (torch, 3178 bytes, 6 tensors)

l1.weight f4 [8, 8]
0	0xbe6794f8	-0.22615421
1	0x3e4696c2	0.19393447
2	0xbeb13495	-0.3461043
3	0xbeb136c6	-0.346121
4	0x3ea2b7b4	0.3178078
5	0xbe0b1514	-0.1358226
6	0xbe419c5d	-0.18907304
7	0x3ecf841e	0.40530485
8	0xbe0797a7	-0.13241445
9	0x3f20e76a	0.6285311
10	0xbe908257	-0.2822444
11	0xbe6940b7	-0.22778593
12	0x3f2db38e	0.67852104
13	0x3e946c37	0.2898881
14	0xbe0ca8b5	-0.13736232
15	0x3ea2daf7	0.31807682
16	0x3f2b15aa	0.6682993
17	0x3d20f736	0.03929826
18	0x3f132b8a	0.5748831
19	0xbe92285f	-0.28546426
20	0xbe4ff910	-0.20309854
21	0xbc6f0dc8	-0.014590688
22	0x3f01fade	0.5077342
23	0xbe4ff73f	-0.2030916
24	0x3f20114f	0.6252641
25	0xbdbe4228	-0.09289962
26	0x3f32e360	0.69878197
27	0x3e3d5a91	0.1849158
28	0xbda9fd44	-0.0830026
29	0xbe94ce2e	-0.29063553
30	0x3f0b19d9	0.54336315
31	0xbe868d02	-0.26279455
32	0xbea96ead	-0.3309225
33	0x3f107b36	0.56438005
34	0xbe8412fc	-0.25795734
35	0xbe83def1	-0.25756028
36	0x3f0ef7ef	0.55847067
37	0x3ecaac80	0.39584732
38	0x3d964a72	0.07338418
39	0x3f2177e7	0.6307358
40	0xbe946eba	-0.28990728
41	0x3e00333e	0.12519547
42	0xbec128eb	-0.3772653
43	0xbf09008d	-0.53516465
44	0x3ef5e1f1	0.48023942
45	0x3ee4ae85	0.44664398
46	0xbe7b2010	-0.2452395
47	0x3f277faa	0.65429175
48	0xbbe5cf13	-0.0070132106
49	0x3db1bca8	0.086785614
50	0xbea2523f	-0.31703374
51	0xbe099d76	-0.13438973
52	0x3eeef586	0.46671695
53	0x3ec43d3a	0.38327962
54	0xbe81df2b	-0.25365576
55	0xbe8d5c92	-0.27609688
56	0x3e3aa872	0.1822832
57	0xbce9dbd0	-0.028547198
58	0xbe6654b2	-0.22493246
59	0x3ea6803d	0.32519713
60	0x3e888515	0.26664034
61	0x3ea49583	0.32145318
62	0x3cd23830	0.025661558
63	0x3e77ba4a	0.24192157

l1.bias f4 [8]
0	0x3eb13645	0.34611717
1	0x3e73cceb	0.23808639
2	0x3e4ff5b6	0.20308575
3	0x3e85ff0b	0.26171145
4	0x3e83ddf2	0.25755268
5	0x3f08fe98	0.5351348
6	0x3e0994bb	0.13435642
7	0xbeb09575	-0.34489027

l2.weight f4 [8, 8]
0	0xbe894502	-0.2681046
1	0xbd109650	-0.0352996
2	0xbeb3b821	-0.35101417
3	0xbe9bbee8	-0.30419087
4	0xbe8c50bc	-0.27405345
5	0x3e2926ce	0.16518709
6	0x3e0bed9c	0.1366486
7	0x3d008c50	0.031383812
8	0x3eea1566	0.4571945
9	0x3f16d14d	0.5891312
10	0xbe9ecf78	-0.3101766
11	0xbdf041db	-0.11731311
12	0x3e553cd6	0.20823988
13	0x3f2458c7	0.64197963
14	0x3f02c69b	0.510843
15	0x3d75b038	0.05998251
16	0x3f6787bf	0.9044151
17	0x3f32d082	0.6984941
18	0xbef6b4cf	-0.4818482
19	0xbde13bac	-0.1099771
20	0x3f2534f1	0.6453391
21	0x3f08c31a	0.534227
22	0x3ea89cbc	0.3293208
23	0xbe90c59c	-0.28275764
24	0x3f2e2b76	0.68035066
25	0x3f2cf412	0.6755992
26	0xbdbbfbdb	-0.09178897
27	0xbe4909d0	-0.1963265
28	0x3f4fbffc	0.8115232
29	0x3f45e53b	0.773029
30	0x3ec47f8c	0.3837856
31	0x3e8ab6c5	0.27092567
32	0xbda8364f	-0.082134835
33	0xbe9e3485	-0.30899444
34	0x3f096865	0.5367492
35	0x3ebb7125	0.3660976
36	0xbf27a2ca	-0.6548277
37	0xbe207032	-0.15667799
38	0xbe410749	-0.18850435
39	0x3e33c75e	0.17556521
40	0xbe068a1b	-0.1313862
41	0x3e97fefd	0.29686728
42	0x3e6eb270	0.23310256
43	0x3ed470ae	0.41492218
44	0xbec6c5dd	-0.38822833
45	0xbebe59bb	-0.37177834
46	0xbd34d58a	-0.04414896
47	0x3dc6ad38	0.097010076
48	0xbe802a97	-0.25032493
49	0xbddf306c	-0.108979076
50	0x3ef7266b	0.48271498
51	0x3f202244	0.62552285
52	0xbee20db6	-0.44151086
53	0xbdef3ba7	-0.116813
54	0xbeab81f8	-0.33497596
55	0x3db9e8c0	0.09077597
56	0x3e6cd769	0.23129047
57	0x3ebbd082	0.36682516
58	0x3db3a0f5	0.087709345
59	0xbe296fd5	-0.16546567
60	0x3f308def	0.68966573
61	0x3f06c401	0.5264283
62	0x3ea517e6	0.32244796
63	0xbe6eef0e	-0.2333338

l2.bias f4 [8]
0	0xbeabc249	-0.33546665
1	0x3c0ecfa1	0.008716495
2	0x3c24ecf4	0.01006626
3	0x3c533a62	0.0128923375
4	0x3f8031ac	1.0015159
5	0x3ef34c61	0.4751921
6	0x3f47a2b5	0.77982646
7	0x3bf68584	0.0075232405

l3.weight f4 [2, 8]
0	0xbe636c6c	-0.22209328
1	0x3ec368c9	0.38165882
2	0x3ea24580	0.3169365
3	0x3ef6af43	0.4818059
4	0xbf2b5bc4	-0.669369
5	0xbf20a0e0	-0.62745476
6	0xbf446db6	-0.76729906
7	0x3f66ee30	0.90207195
8	0x3d03a4d8	0.03213963
9	0xbf16869e	-0.5879916
10	0xbee031ff	-0.43788144
11	0xbe653401	-0.22383119
12	0x3ebbcf73	0.3668171
13	0x3f4ddc0b	0.80413884
14	0x3eefc7f8	0.46832252
15	0xbf3cff93	-0.73827475

l3.bias f4 [2]
0	0xbf2b6393	-0.66948813
1	0x3f1879a4	0.5956061
