chatBot/data.pth (torch, 3370 bytes, 6 tensors)

l1.weight f4 [8, 12]
000000 40 7d c7 3e c4 25 62 be fb b9 ca 3e b9 2f 52 3e
       0.38962746 -0.22084719 0.39595017 0.20526017
000010 cf 88 df 3e 70 0c 61 be 39 fa 60 be 9b 16 30 3f
       0.43659064 -0.21977401 -0.21970452 0.68784493
000020 26 64 ce 3c 3e c5 9e 3a 0e 9f 14 3e de ac ac 3e
       0.025194239 0.0012113226 0.145138 0.33725637
000030 68 a7 cf 3d 6f 8e f0 3e aa dc 6c be ce c4 0a be
       0.10139352 0.46983668 -0.23131052 -0.13551638
000040 90 b8 f9 3d f2 3e ec 3e ca 2a df bd 38 88 3b bb
       0.12193406 0.46141773 -0.10896833 -0.0028615128
000050 80 c8 ca bd 01 68 85 3e 0f 12 98 bd 51 27 04 be
       -0.099015236 0.2605591 -0.074253194 -0.12905623
000060 61 f4 9b bd a3 18 09 bd 71 48 f7 3d 60 5b ff 3b
       -0.07614971 -0.03347076 0.12074364 0.007792875
000070 5f 00 f6 3e 50 e7 43 be a4 52 43 be 4d 4a 09 3f
       0.48047158 -0.19131207 -0.19074494 0.53629
000080 96 7e 1c 3d ab f5 2a bd 8e d5 31 3f f9 96 3a 3f
       0.03820666 -0.041738193 0.69466484 0.72886616
000090 87 08 d3 3d f4 15 21 3e 2f ef 27 3c 1c 93 46 be
       0.10304361 0.1573103 0.010249897 -0.19392055
0000a0 b0 0f 08 be 4b d6 3b 3f dd 5e f6 3e 58 76 51 bd
       -0.13287234 0.7337386 0.4811925 -0.051138252
0000b0 dd 1b 5f bc 6b 3b 6c 3e 8a de 8d be 2b 5a a7 be
       -0.013617483 0.23069541 -0.27708846 -0.3268598
0000c0 54 71 1e 3e 1c 98 5d be 07 62 e4 3e 0a dc ba 3d
       0.15472919 -0.21640056 0.4460604 0.09124
0000d0 7e 21 bc 3d 41 45 a1 be af 16 ca be 03 99 02 3f
       0.09186076 -0.3149815 -0.3947043 0.5101473
0000e0 91 fa e5 3e 5d 9c 36 be e4 dd 14 3f cf ad 16 3f
       0.4491773 -0.17833085 0.5815108 0.5885896
0000f0 bb a5 9e bd 7c a3 a3 3e 07 26 74 be 96 71 0b 3e
       -0.07746454 0.31960666 -0.23842631 0.13617548
000100 6a a6 73 be 92 14 d9 3e 8a 30 a3 bd 12 ad 86 bd
       -0.2379395 0.42398506 -0.079682425 -0.06575979
000110 44 41 0a be 96 02 86 3e 9e bf aa bd 4f 1b a9 bc
       -0.1350146 0.26173848 -0.08337329 -0.020642905
000120 1d 76 b4 3e 5f e1 65 be eb 8d 2e bd b1 5b 85 bd
       0.35246363 -0.22449253 -0.042615812 -0.065116294
000130 2e 2d 52 3e eb 40 5a 3e bd 67 72 3d c7 e6 be 3e
       0.20525047 0.21313827 0.059180964 0.37285444
000140 e1 73 8b 3e 35 83 78 3e 74 aa bb 3e 5f 94 84 3e
       0.27236846 0.24268802 0.36653483 0.25894448
000150 75 f2 a5 be 6e b0 32 3f f3 11 9b be 83 54 f7 3c
       -0.32411543 0.6980046 -0.30287132 0.030191666
000160 d8 93 db bd 57 e7 42 3f 05 b3 0b 3f 26 15 78 be
       -0.10721558 0.76134247 0.5457004 -0.24226817
000170 65 bb cb bd 4e 23 3d 3f 02 90 f0 be b1 54 a3 be
       -0.09947852 0.73881996 -0.4698487 -0.31900552

l1.bias f4 [8]
000000 3c e6 60 3e 04 6f bd 3d 18 05 43 3e 20 d2 ed 3e
       0.21962827 0.0924969 0.19044912 0.46449375
000010 e4 0c ca 3e 06 c3 83 3d 2e 2d b8 3e 6c 7c 37 3f
       0.3946296 0.06433682 0.3597197 0.7167423

l2.weight f4 [8, 8]
000000 c3 20 e9 be 5d 69 08 3f a8 b4 90 be 31 57 3a 3f
       -0.45532808 0.5328577 -0.2826283 0.72789294
000010 cf 86 d3 be 1e d6 b2 3e 54 8e db 3e 4f a2 86 3f
       -0.41313788 0.34928983 0.42882025 1.0518283
000020 bb 47 3a 3f 5b 17 e2 3d b4 34 47 3e c3 1a c8 be
       0.727657 0.11039611 0.19453698 -0.39082918
000030 f0 1e 3b 3f f6 30 14 bd ed a1 31 3f da 23 ad bc
       0.7309408 -0.036179505 0.69387704 -0.02113526
000040 a6 39 b5 be 7f e0 d9 bd e5 22 06 be 80 51 9c 3e
       -0.35395545 -0.10638522 -0.13099249 0.3053093
000050 b2 98 98 3e e8 05 41 be 26 11 95 be 2b 98 8a 3d
       0.29803997 -0.1884991 -0.29114646 0.06767305
000060 43 5a 60 3f 00 76 66 be a5 9b 58 3f 6b 03 f1 bd
       0.8763773 -0.22505951 0.84612495 -0.1176823
000070 b5 93 65 3e 1c 24 7a 3e ff 52 af 3e 15 fa 54 be
       0.22419627 0.24427837 0.34243008 -0.20798524
000080 9c c2 32 3f 70 87 55 bc 70 05 1e 3d 69 f9 92 be
       0.698282 -0.013032779 0.038579404 -0.2870591
000090 06 e5 1c 3f 7a 26 b3 be e0 99 44 3d bf 99 e2 3d
       0.6128696 -0.34990293 0.04799831 0.11064481
0000a0 b6 27 a7 be f9 30 89 be 38 1c 70 bd de 1b f3 bd
       -0.32647485 -0.26795176 -0.05862066 -0.118705496
0000b0 5d 29 a7 3e 28 7b 6e 3d d3 88 4c be 0f aa 86 3e
       0.32648745 0.05822292 -0.1997407 0.2630162
0000c0 bf 04 ef 3e d8 4e 8d be 56 b5 d3 3e fe 4d a2 be
       0.46683308 -0.27599216 0.41349286 -0.31700128
0000d0 bc 8d f8 3e e1 c1 d6 be 12 a5 10 3f 06 6b 4f be
       0.48545635 -0.41944793 0.5650188 -0.2025567
0000e0 8f 58 30 be 80 a2 c5 bd 98 23 39 bd 20 d0 e0 3d
       -0.17221282 -0.09650135 -0.04519996 0.10977197
0000f0 1c a2 da bd 15 39 8c be 40 e5 3c 3c b1 88 11 be
       -0.10675451 -0.273873 0.011529267 -0.142123

l2.bias f4 [8]
000000 9a 5c 35 3f 5c 38 92 3a 60 72 a3 be c2 f9 63 3e
       0.70844424 0.0011155712 -0.319232 0.22263244
000010 39 64 e4 3d 35 a2 9f be d8 36 a2 3e 88 a3 4e bd
       0.111519285 -0.31178442 0.31682467 -0.050448924

l3.weight f4 [2, 8]
000000 66 65 69 3f 2c 95 65 bf db 8d ac 3d e0 b8 5f bf
       0.91170347 -0.89680743 0.08425494 -0.8739147
000010 0d 6b 44 bf 8c 7e 9c be c2 ec 29 bf be ca 8e be
       -0.76725847 -0.30565298 -0.6637689 -0.27889055
000020 c6 ab 41 bf 83 fb 02 3f 45 bd 75 3e 6a e6 6a 3f
       -0.7565273 0.51165026 0.23997982 0.91757834
000030 6b 4f cb 3e a0 8d b1 3d 1b c6 19 3f 96 12 45 be
       0.3970903 0.08669591 0.6006791 -0.19245371

l3.bias f4 [2]
000000 68 96 6c 3d a5 86 6f 3c
       0.057760626 0.014619504
